{"modelTopology":{"class_name":"Model","config":{"name":"model1","layers":[{"name":"input1","class_name":"InputLayer","config":{"batch_input_shape":[null,512],"dtype":"float32","sparse":false,"name":"input1"},"inbound_nodes":[]},{"name":"reshape_Reshape1","class_name":"Reshape","config":{"target_shape":[512,1,1],"name":"reshape_Reshape1","trainable":true},"inbound_nodes":[[["input1",0,0,{}]]]},{"name":"conv2d_Conv2D1","class_name":"Conv2D","config":{"filters":8,"kernel_initializer":{"class_name":"VarianceScaling","config":{"scale":2,"mode":"fan_in","distribution":"normal","seed":null}},"kernel_regularizer":{"class_name":"L1L2","config":{"l1":0.01,"l2":0.01}},"kernel_constraint":null,"kernel_size":[3,1],"strides":[2,1],"padding":"same","data_format":"channels_last","dilation_rate":[1,1],"activation":"relu","use_bias":true,"bias_initializer":{"class_name":"Zeros","config":{}},"bias_regularizer":null,"activity_regularizer":null,"bias_constraint":null,"name":"conv2d_Conv2D1","trainable":true},"inbound_nodes":[[["reshape_Reshape1",0,0,{}]]]},{"name":"conv2d_Conv2D2","class_name":"Conv2D","config":{"filters":8,"kernel_initializer":{"class_name":"VarianceScaling","config":{"scale":2,"mode":"fan_in","distribution":"normal","seed":null}},"kernel_regularizer":{"class_name":"L1L2","config":{"l1":0.01,"l2":0.01}},"kernel_constraint":null,"kernel_size":[3,1],"strides":[2,1],"padding":"same","data_format":"channels_last","dilation_rate":[1,1],"activation":"relu","use_bias":true,"bias_initializer":{"class_name":"Zeros","config":{}},"bias_regularizer":null,"activity_regularizer":null,"bias_constraint":null,"name":"conv2d_Conv2D2","trainable":true},"inbound_nodes":[[["reshape_Reshape1",0,0,{}]]]},{"name":"conv2d_Conv2D3","class_name":"Conv2D","config":{"filters":8,"kernel_initializer":{"class_name":"VarianceScaling","config":{"scale":2,"mode":"fan_in","distribution":"normal","seed":null}},"kernel_regularizer":{"class_name":"L1L2","config":{"l1":0.01,"l2":0.01}},"kernel_constraint":null,"kernel_size":[3,1],"strides":[2,1],"padding":"same","data_format":"channels_last","dilation_rate":[1,1],"activation":"relu","use_bias":true,"bias_initializer":{"class_name":"Zeros","config":{}},"bias_regularizer":null,"activity_regularizer":null,"bias_constraint":null,"name":"conv2d_Conv2D3","trainable":true},"inbound_nodes":[[["reshape_Reshape1",0,0,{}]]]},{"name":"conv2d_Conv2D4","class_name":"Conv2D","config":{"filters":8,"kernel_initializer":{"class_name":"VarianceScaling","config":{"scale":2,"mode":"fan_in","distribution":"normal","seed":null}},"kernel_regularizer":{"class_name":"L1L2","config":{"l1":0.01,"l2":0.01}},"kernel_constraint":null,"kernel_size":[3,1],"strides":[2,1],"padding":"same","data_format":"channels_last","dilation_rate":[1,1],"activation":"relu","use_bias":true,"bias_initializer":{"class_name":"Zeros","config":{}},"bias_regularizer":null,"activity_regularizer":null,"bias_constraint":null,"name":"conv2d_Conv2D4","trainable":true},"inbound_nodes":[[["reshape_Reshape1",0,0,{}]]]},{"name":"conv2d_Conv2D5","class_name":"Conv2D","config":{"filters":8,"kernel_initializer":{"class_name":"VarianceScaling","config":{"scale":2,"mode":"fan_in","distribution":"normal","seed":null}},"kernel_regularizer":{"class_name":"L1L2","config":{"l1":0.01,"l2":0.01}},"kernel_constraint":null,"kernel_size":[3,1],"strides":[2,1],"padding":"same","data_format":"channels_last","dilation_rate":[1,1],"activation":"relu","use_bias":true,"bias_initializer":{"class_name":"Zeros","config":{}},"bias_regularizer":null,"activity_regularizer":null,"bias_constraint":null,"name":"conv2d_Conv2D5","trainable":true},"inbound_nodes":[[["reshape_Reshape1",0,0,{}]]]},{"name":"conv2d_Conv2D6","class_name":"Conv2D","config":{"filters":8,"kernel_initializer":{"class_name":"VarianceScaling","config":{"scale":2,"mode":"fan_in","distribution":"normal","seed":null}},"kernel_regularizer":{"class_name":"L1L2","config":{"l1":0.01,"l2":0.01}},"kernel_constraint":null,"kernel_size":[3,1],"strides":[2,1],"padding":"same","data_format":"channels_last","dilation_rate":[1,1],"activation":"relu","use_bias":true,"bias_initializer":{"class_name":"Zeros","config":{}},"bias_regularizer":null,"activity_regularizer":null,"bias_constraint":null,"name":"conv2d_Conv2D6","trainable":true},"inbound_nodes":[[["reshape_Reshape1",0,0,{}]]]},{"name":"conv2d_Conv2D7","class_name":"Conv2D","config":{"filters":8,"kernel_initializer":{"class_name":"VarianceScaling","config":{"scale":2,"mode":"fan_in","distribution":"normal","seed":null}},"kernel_regularizer":{"class_name":"L1L2","config":{"l1":0.01,"l2":0.01}},"kernel_constraint":null,"kernel_size":[3,1],"strides":[2,1],"padding":"same","data_format":"channels_last","dilation_rate":[1,1],"activation":"relu","use_bias":true,"bias_initializer":{"class_name":"Zeros","config":{}},"bias_regularizer":null,"activity_regularizer":null,"bias_constraint":null,"name":"conv2d_Conv2D7","trainable":true},"inbound_nodes":[[["reshape_Reshape1",0,0,{}]]]},{"name":"conv2d_Conv2D8","class_name":"Conv2D","config":{"filters":8,"kernel_initializer":{"class_name":"VarianceScaling","config":{"scale":2,"mode":"fan_in","distribution":"normal","seed":null}},"kernel_regularizer":{"class_name":"L1L2","config":{"l1":0.01,"l2":0.01}},"kernel_constraint":null,"kernel_size":[3,1],"strides":[2,1],"padding":"same","data_format":"channels_last","dilation_rate":[1,1],"activation":"relu","use_bias":true,"bias_initializer":{"class_name":"Zeros","config":{}},"bias_regularizer":null,"activity_regularizer":null,"bias_constraint":null,"name":"conv2d_Conv2D8","trainable":true},"inbound_nodes":[[["reshape_Reshape1",0,0,{}]]]},{"name":"conv2d_Conv2D9","class_name":"Conv2D","config":{"filters":8,"kernel_initializer":{"class_name":"VarianceScaling","config":{"scale":2,"mode":"fan_in","distribution":"normal","seed":null}},"kernel_regularizer":{"class_name":"L1L2","config":{"l1":0.01,"l2":0.01}},"kernel_constraint":null,"kernel_size":[3,1],"strides":[2,1],"padding":"same","data_format":"channels_last","dilation_rate":[1,1],"activation":"relu","use_bias":true,"bias_initializer":{"class_name":"Zeros","config":{}},"bias_regularizer":null,"activity_regularizer":null,"bias_constraint":null,"name":"conv2d_Conv2D9","trainable":true},"inbound_nodes":[[["reshape_Reshape1",0,0,{}]]]},{"name":"conv2d_Conv2D10","class_name":"Conv2D","config":{"filters":8,"kernel_initializer":{"class_name":"VarianceScaling","config":{"scale":2,"mode":"fan_in","distribution":"normal","seed":null}},"kernel_regularizer":{"class_name":"L1L2","config":{"l1":0.01,"l2":0.01}},"kernel_constraint":null,"kernel_size":[3,1],"strides":[2,1],"padding":"same","data_format":"channels_last","dilation_rate":[1,1],"activation":"relu","use_bias":true,"bias_initializer":{"class_name":"Zeros","config":{}},"bias_regularizer":null,"activity_regularizer":null,"bias_constraint":null,"name":"conv2d_Conv2D10","trainable":true},"inbound_nodes":[[["reshape_Reshape1",0,0,{}]]]},{"name":"conv2d_Conv2D11","class_name":"Conv2D","config":{"filters":8,"kernel_initializer":{"class_name":"VarianceScaling","config":{"scale":2,"mode":"fan_in","distribution":"normal","seed":null}},"kernel_regularizer":{"class_name":"L1L2","config":{"l1":0.01,"l2":0.01}},"kernel_constraint":null,"kernel_size":[3,1],"strides":[2,1],"padding":"same","data_format":"channels_last","dilation_rate":[1,1],"activation":"relu","use_bias":true,"bias_initializer":{"class_name":"Zeros","config":{}},"bias_regularizer":null,"activity_regularizer":null,"bias_constraint":null,"name":"conv2d_Conv2D11","trainable":true},"inbound_nodes":[[["reshape_Reshape1",0,0,{}]]]},{"name":"conv2d_Conv2D12","class_name":"Conv2D","config":{"filters":8,"kernel_initializer":{"class_name":"VarianceScaling","config":{"scale":2,"mode":"fan_in","distribution":"normal","seed":null}},"kernel_regularizer":{"class_name":"L1L2","config":{"l1":0.01,"l2":0.01}},"kernel_constraint":null,"kernel_size":[3,1],"strides":[2,1],"padding":"same","data_format":"channels_last","dilation_rate":[1,1],"activation":"relu","use_bias":true,"bias_initializer":{"class_name":"Zeros","config":{}},"bias_regularizer":null,"activity_regularizer":null,"bias_constraint":null,"name":"conv2d_Conv2D12","trainable":true},"inbound_nodes":[[["reshape_Reshape1",0,0,{}]]]},{"name":"conv2d_Conv2D13","class_name":"Conv2D","config":{"filters":8,"kernel_initializer":{"class_name":"VarianceScaling","config":{"scale":2,"mode":"fan_in","distribution":"normal","seed":null}},"kernel_regularizer":{"class_name":"L1L2","config":{"l1":0.01,"l2":0.01}},"kernel_constraint":null,"kernel_size":[3,1],"strides":[2,1],"padding":"same","data_format":"channels_last","dilation_rate":[1,1],"activation":"relu","use_bias":true,"bias_initializer":{"class_name":"Zeros","config":{}},"bias_regularizer":null,"activity_regularizer":null,"bias_constraint":null,"name":"conv2d_Conv2D13","trainable":true},"inbound_nodes":[[["reshape_Reshape1",0,0,{}]]]},{"name":"conv2d_Conv2D14","class_name":"Conv2D","config":{"filters":8,"kernel_initializer":{"class_name":"VarianceScaling","config":{"scale":2,"mode":"fan_in","distribution":"normal","seed":null}},"kernel_regularizer":{"class_name":"L1L2","config":{"l1":0.01,"l2":0.01}},"kernel_constraint":null,"kernel_size":[3,1],"strides":[2,1],"padding":"same","data_format":"channels_last","dilation_rate":[1,1],"activation":"relu","use_bias":true,"bias_initializer":{"class_name":"Zeros","config":{}},"bias_regularizer":null,"activity_regularizer":null,"bias_constraint":null,"name":"conv2d_Conv2D14","trainable":true},"inbound_nodes":[[["reshape_Reshape1",0,0,{}]]]},{"name":"conv2d_Conv2D15","class_name":"Conv2D","config":{"filters":8,"kernel_initializer":{"class_name":"VarianceScaling","config":{"scale":2,"mode":"fan_in","distribution":"normal","seed":null}},"kernel_regularizer":{"class_name":"L1L2","config":{"l1":0.01,"l2":0.01}},"kernel_constraint":null,"kernel_size":[3,1],"strides":[2,1],"padding":"same","data_format":"channels_last","dilation_rate":[1,1],"activation":"relu","use_bias":true,"bias_initializer":{"class_name":"Zeros","config":{}},"bias_regularizer":null,"activity_regularizer":null,"bias_constraint":null,"name":"conv2d_Conv2D15","trainable":true},"inbound_nodes":[[["reshape_Reshape1",0,0,{}]]]},{"name":"conv2d_Conv2D16","class_name":"Conv2D","config":{"filters":8,"kernel_initializer":{"class_name":"VarianceScaling","config":{"scale":2,"mode":"fan_in","distribution":"normal","seed":null}},"kernel_regularizer":{"class_name":"L1L2","config":{"l1":0.01,"l2":0.01}},"kernel_constraint":null,"kernel_size":[3,1],"strides":[2,1],"padding":"same","data_format":"channels_last","dilation_rate":[1,1],"activation":"relu","use_bias":true,"bias_initializer":{"class_name":"Zeros","config":{}},"bias_regularizer":null,"activity_regularizer":null,"bias_constraint":null,"name":"conv2d_Conv2D16","trainable":true},"inbound_nodes":[[["reshape_Reshape1",0,0,{}]]]},{"name":"conv2d_Conv2D17","class_name":"Conv2D","config":{"filters":8,"kernel_initializer":{"class_name":"VarianceScaling","config":{"scale":2,"mode":"fan_in","distribution":"normal","seed":null}},"kernel_regularizer":{"class_name":"L1L2","config":{"l1":0.01,"l2":0.01}},"kernel_constraint":null,"kernel_size":[3,1],"strides":[2,1],"padding":"same","data_format":"channels_last","dilation_rate":[1,1],"activation":"relu","use_bias":true,"bias_initializer":{"class_name":"Zeros","config":{}},"bias_regularizer":null,"activity_regularizer":null,"bias_constraint":null,"name":"conv2d_Conv2D17","trainable":true},"inbound_nodes":[[["reshape_Reshape1",0,0,{}]]]},{"name":"conv2d_Conv2D18","class_name":"Conv2D","config":{"filters":8,"kernel_initializer":{"class_name":"VarianceScaling","config":{"scale":2,"mode":"fan_in","distribution":"normal","seed":null}},"kernel_regularizer":{"class_name":"L1L2","config":{"l1":0.01,"l2":0.01}},"kernel_constraint":null,"kernel_size":[3,1],"strides":[2,1],"padding":"same","data_format":"channels_last","dilation_rate":[1,1],"activation":"relu","use_bias":true,"bias_initializer":{"class_name":"Zeros","config":{}},"bias_regularizer":null,"activity_regularizer":null,"bias_constraint":null,"name":"conv2d_Conv2D18","trainable":true},"inbound_nodes":[[["reshape_Reshape1",0,0,{}]]]},{"name":"conv2d_Conv2D19","class_name":"Conv2D","config":{"filters":8,"kernel_initializer":{"class_name":"VarianceScaling","config":{"scale":2,"mode":"fan_in","distribution":"normal","seed":null}},"kernel_regularizer":{"class_name":"L1L2","config":{"l1":0.01,"l2":0.01}},"kernel_constraint":null,"kernel_size":[3,1],"strides":[2,1],"padding":"same","data_format":"channels_last","dilation_rate":[1,1],"activation":"relu","use_bias":true,"bias_initializer":{"class_name":"Zeros","config":{}},"bias_regularizer":null,"activity_regularizer":null,"bias_constraint":null,"name":"conv2d_Conv2D19","trainable":true},"inbound_nodes":[[["reshape_Reshape1",0,0,{}]]]},{"name":"conv2d_Conv2D20","class_name":"Conv2D","config":{"filters":8,"kernel_initializer":{"class_name":"VarianceScaling","config":{"scale":2,"mode":"fan_in","distribution":"normal","seed":null}},"kernel_regularizer":{"class_name":"L1L2","config":{"l1":0.01,"l2":0.01}},"kernel_constraint":null,"kernel_size":[3,1],"strides":[2,1],"padding":"same","data_format":"channels_last","dilation_rate":[1,1],"activation":"relu","use_bias":true,"bias_initializer":{"class_name":"Zeros","config":{}},"bias_regularizer":null,"activity_regularizer":null,"bias_constraint":null,"name":"conv2d_Conv2D20","trainable":true},"inbound_nodes":[[["reshape_Reshape1",0,0,{}]]]},{"name":"conv2d_Conv2D21","class_name":"Conv2D","config":{"filters":8,"kernel_initializer":{"class_name":"VarianceScaling","config":{"scale":2,"mode":"fan_in","distribution":"normal","seed":null}},"kernel_regularizer":{"class_name":"L1L2","config":{"l1":0.01,"l2":0.01}},"kernel_constraint":null,"kernel_size":[3,1],"strides":[2,1],"padding":"same","data_format":"channels_last","dilation_rate":[1,1],"activation":"relu","use_bias":true,"bias_initializer":{"class_name":"Zeros","config":{}},"bias_regularizer":null,"activity_regularizer":null,"bias_constraint":null,"name":"conv2d_Conv2D21","trainable":true},"inbound_nodes":[[["reshape_Reshape1",0,0,{}]]]},{"name":"conv2d_Conv2D22","class_name":"Conv2D","config":{"filters":8,"kernel_initializer":{"class_name":"VarianceScaling","config":{"scale":2,"mode":"fan_in","distribution":"normal","seed":null}},"kernel_regularizer":{"class_name":"L1L2","config":{"l1":0.01,"l2":0.01}},"kernel_constraint":null,"kernel_size":[3,1],"strides":[2,1],"padding":"same","data_format":"channels_last","dilation_rate":[1,1],"activation":"relu","use_bias":true,"bias_initializer":{"class_name":"Zeros","config":{}},"bias_regularizer":null,"activity_regularizer":null,"bias_constraint":null,"name":"conv2d_Conv2D22","trainable":true},"inbound_nodes":[[["reshape_Reshape1",0,0,{}]]]},{"name":"conv2d_Conv2D23","class_name":"Conv2D","config":{"filters":8,"kernel_initializer":{"class_name":"VarianceScaling","config":{"scale":2,"mode":"fan_in","distribution":"normal","seed":null}},"kernel_regularizer":{"class_name":"L1L2","config":{"l1":0.01,"l2":0.01}},"kernel_constraint":null,"kernel_size":[3,1],"strides":[2,1],"padding":"same","data_format":"channels_last","dilation_rate":[1,1],"activation":"relu","use_bias":true,"bias_initializer":{"class_name":"Zeros","config":{}},"bias_regularizer":null,"activity_regularizer":null,"bias_constraint":null,"name":"conv2d_Conv2D23","trainable":true},"inbound_nodes":[[["reshape_Reshape1",0,0,{}]]]},{"name":"conv2d_Conv2D24","class_name":"Conv2D","config":{"filters":8,"kernel_initializer":{"class_name":"VarianceScaling","config":{"scale":2,"mode":"fan_in","distribution":"normal","seed":null}},"kernel_regularizer":{"class_name":"L1L2","config":{"l1":0.01,"l2":0.01}},"kernel_constraint":null,"kernel_size":[3,1],"strides":[2,1],"padding":"same","data_format":"channels_last","dilation_rate":[1,1],"activation":"relu","use_bias":true,"bias_initializer":{"class_name":"Zeros","config":{}},"bias_regularizer":null,"activity_regularizer":null,"bias_constraint":null,"name":"conv2d_Conv2D24","trainable":true},"inbound_nodes":[[["reshape_Reshape1",0,0,{}]]]},{"name":"batch_normalization_BatchNormalization1","class_name":"BatchNormalization","config":{"axis":-1,"momentum":0.99,"epsilon":0.001,"center":true,"scale":true,"beta_initializer":{"class_name":"Zeros","config":{}},"gamma_initializer":{"class_name":"Ones","config":{}},"moving_mean_initializer":{"class_name":"Zeros","config":{}},"moving_variance_initializer":{"class_name":"Ones","config":{}},"beta_regularizer":null,"gamma_regularizer":null,"beta_constraint":null,"gamma_constraint":null,"name":"batch_normalization_BatchNormalization1","trainable":true},"inbound_nodes":[[["conv2d_Conv2D1",0,0,{}]]]},{"name":"batch_normalization_BatchNormalization2","class_name":"BatchNormalization","config":{"axis":-1,"momentum":0.99,"epsilon":0.001,"center":true,"scale":true,"beta_initializer":{"class_name":"Zeros","config":{}},"gamma_initializer":{"class_name":"Ones","config":{}},"moving_mean_initializer":{"class_name":"Zeros","config":{}},"moving_variance_initializer":{"class_name":"Ones","config":{}},"beta_regularizer":null,"gamma_regularizer":null,"beta_constraint":null,"gamma_constraint":null,"name":"batch_normalization_BatchNormalization2","trainable":true},"inbound_nodes":[[["conv2d_Conv2D2",0,0,{}]]]},{"name":"batch_normalization_BatchNormalization3","class_name":"BatchNormalization","config":{"axis":-1,"momentum":0.99,"epsilon":0.001,"center":true,"scale":true,"beta_initializer":{"class_name":"Zeros","config":{}},"gamma_initializer":{"class_name":"Ones","config":{}},"moving_mean_initializer":{"class_name":"Zeros","config":{}},"moving_variance_initializer":{"class_name":"Ones","config":{}},"beta_regularizer":null,"gamma_regularizer":null,"beta_constraint":null,"gamma_constraint":null,"name":"batch_normalization_BatchNormalization3","trainable":true},"inbound_nodes":[[["conv2d_Conv2D3",0,0,{}]]]},{"name":"batch_normalization_BatchNormalization4","class_name":"BatchNormalization","config":{"axis":-1,"momentum":0.99,"epsilon":0.001,"center":true,"scale":true,"beta_initializer":{"class_name":"Zeros","config":{}},"gamma_initializer":{"class_name":"Ones","config":{}},"moving_mean_initializer":{"class_name":"Zeros","config":{}},"moving_variance_initializer":{"class_name":"Ones","config":{}},"beta_regularizer":null,"gamma_regularizer":null,"beta_constraint":null,"gamma_constraint":null,"name":"batch_normalization_BatchNormalization4","trainable":true},"inbound_nodes":[[["conv2d_Conv2D4",0,0,{}]]]},{"name":"batch_normalization_BatchNormalization5","class_name":"BatchNormalization","config":{"axis":-1,"momentum":0.99,"epsilon":0.001,"center":true,"scale":true,"beta_initializer":{"class_name":"Zeros","config":{}},"gamma_initializer":{"class_name":"Ones","config":{}},"moving_mean_initializer":{"class_name":"Zeros","config":{}},"moving_variance_initializer":{"class_name":"Ones","config":{}},"beta_regularizer":null,"gamma_regularizer":null,"beta_constraint":null,"gamma_constraint":null,"name":"batch_normalization_BatchNormalization5","trainable":true},"inbound_nodes":[[["conv2d_Conv2D5",0,0,{}]]]},{"name":"batch_normalization_BatchNormalization6","class_name":"BatchNormalization","config":{"axis":-1,"momentum":0.99,"epsilon":0.001,"center":true,"scale":true,"beta_initializer":{"class_name":"Zeros","config":{}},"gamma_initializer":{"class_name":"Ones","config":{}},"moving_mean_initializer":{"class_name":"Zeros","config":{}},"moving_variance_initializer":{"class_name":"Ones","config":{}},"beta_regularizer":null,"gamma_regularizer":null,"beta_constraint":null,"gamma_constraint":null,"name":"batch_normalization_BatchNormalization6","trainable":true},"inbound_nodes":[[["conv2d_Conv2D6",0,0,{}]]]},{"name":"batch_normalization_BatchNormalization7","class_name":"BatchNormalization","config":{"axis":-1,"momentum":0.99,"epsilon":0.001,"center":true,"scale":true,"beta_initializer":{"class_name":"Zeros","config":{}},"gamma_initializer":{"class_name":"Ones","config":{}},"moving_mean_initializer":{"class_name":"Zeros","config":{}},"moving_variance_initializer":{"class_name":"Ones","config":{}},"beta_regularizer":null,"gamma_regularizer":null,"beta_constraint":null,"gamma_constraint":null,"name":"batch_normalization_BatchNormalization7","trainable":true},"inbound_nodes":[[["conv2d_Conv2D7",0,0,{}]]]},{"name":"batch_normalization_BatchNormalization8","class_name":"BatchNormalization","config":{"axis":-1,"momentum":0.99,"epsilon":0.001,"center":true,"scale":true,"beta_initializer":{"class_name":"Zeros","config":{}},"gamma_initializer":{"class_name":"Ones","config":{}},"moving_mean_initializer":{"class_name":"Zeros","config":{}},"moving_variance_initializer":{"class_name":"Ones","config":{}},"beta_regularizer":null,"gamma_regularizer":null,"beta_constraint":null,"gamma_constraint":null,"name":"batch_normalization_BatchNormalization8","trainable":true},"inbound_nodes":[[["conv2d_Conv2D8",0,0,{}]]]},{"name":"batch_normalization_BatchNormalization9","class_name":"BatchNormalization","config":{"axis":-1,"momentum":0.99,"epsilon":0.001,"center":true,"scale":true,"beta_initializer":{"class_name":"Zeros","config":{}},"gamma_initializer":{"class_name":"Ones","config":{}},"moving_mean_initializer":{"class_name":"Zeros","config":{}},"moving_variance_initializer":{"class_name":"Ones","config":{}},"beta_regularizer":null,"gamma_regularizer":null,"beta_constraint":null,"gamma_constraint":null,"name":"batch_normalization_BatchNormalization9","trainable":true},"inbound_nodes":[[["conv2d_Conv2D9",0,0,{}]]]},{"name":"batch_normalization_BatchNormalization10","class_name":"BatchNormalization","config":{"axis":-1,"momentum":0.99,"epsilon":0.001,"center":true,"scale":true,"beta_initializer":{"class_name":"Zeros","config":{}},"gamma_initializer":{"class_name":"Ones","config":{}},"moving_mean_initializer":{"class_name":"Zeros","config":{}},"moving_variance_initializer":{"class_name":"Ones","config":{}},"beta_regularizer":null,"gamma_regularizer":null,"beta_constraint":null,"gamma_constraint":null,"name":"batch_normalization_BatchNormalization10","trainable":true},"inbound_nodes":[[["conv2d_Conv2D10",0,0,{}]]]},{"name":"batch_normalization_BatchNormalization11","class_name":"BatchNormalization","config":{"axis":-1,"momentum":0.99,"epsilon":0.001,"center":true,"scale":true,"beta_initializer":{"class_name":"Zeros","config":{}},"gamma_initializer":{"class_name":"Ones","config":{}},"moving_mean_initializer":{"class_name":"Zeros","config":{}},"moving_variance_initializer":{"class_name":"Ones","config":{}},"beta_regularizer":null,"gamma_regularizer":null,"beta_constraint":null,"gamma_constraint":null,"name":"batch_normalization_BatchNormalization11","trainable":true},"inbound_nodes":[[["conv2d_Conv2D11",0,0,{}]]]},{"name":"batch_normalization_BatchNormalization12","class_name":"BatchNormalization","config":{"axis":-1,"momentum":0.99,"epsilon":0.001,"center":true,"scale":true,"beta_initializer":{"class_name":"Zeros","config":{}},"gamma_initializer":{"class_name":"Ones","config":{}},"moving_mean_initializer":{"class_name":"Zeros","config":{}},"moving_variance_initializer":{"class_name":"Ones","config":{}},"beta_regularizer":null,"gamma_regularizer":null,"beta_constraint":null,"gamma_constraint":null,"name":"batch_normalization_BatchNormalization12","trainable":true},"inbound_nodes":[[["conv2d_Conv2D12",0,0,{}]]]},{"name":"batch_normalization_BatchNormalization13","class_name":"BatchNormalization","config":{"axis":-1,"momentum":0.99,"epsilon":0.001,"center":true,"scale":true,"beta_initializer":{"class_name":"Zeros","config":{}},"gamma_initializer":{"class_name":"Ones","config":{}},"moving_mean_initializer":{"class_name":"Zeros","config":{}},"moving_variance_initializer":{"class_name":"Ones","config":{}},"beta_regularizer":null,"gamma_regularizer":null,"beta_constraint":null,"gamma_constraint":null,"name":"batch_normalization_BatchNormalization13","trainable":true},"inbound_nodes":[[["conv2d_Conv2D13",0,0,{}]]]},{"name":"batch_normalization_BatchNormalization14","class_name":"BatchNormalization","config":{"axis":-1,"momentum":0.99,"epsilon":0.001,"center":true,"scale":true,"beta_initializer":{"class_name":"Zeros","config":{}},"gamma_initializer":{"class_name":"Ones","config":{}},"moving_mean_initializer":{"class_name":"Zeros","config":{}},"moving_variance_initializer":{"class_name":"Ones","config":{}},"beta_regularizer":null,"gamma_regularizer":null,"beta_constraint":null,"gamma_constraint":null,"name":"batch_normalization_BatchNormalization14","trainable":true},"inbound_nodes":[[["conv2d_Conv2D14",0,0,{}]]]},{"name":"batch_normalization_BatchNormalization15","class_name":"BatchNormalization","config":{"axis":-1,"momentum":0.99,"epsilon":0.001,"center":true,"scale":true,"beta_initializer":{"class_name":"Zeros","config":{}},"gamma_initializer":{"class_name":"Ones","config":{}},"moving_mean_initializer":{"class_name":"Zeros","config":{}},"moving_variance_initializer":{"class_name":"Ones","config":{}},"beta_regularizer":null,"gamma_regularizer":null,"beta_constraint":null,"gamma_constraint":null,"name":"batch_normalization_BatchNormalization15","trainable":true},"inbound_nodes":[[["conv2d_Conv2D15",0,0,{}]]]},{"name":"batch_normalization_BatchNormalization16","class_name":"BatchNormalization","config":{"axis":-1,"momentum":0.99,"epsilon":0.001,"center":true,"scale":true,"beta_initializer":{"class_name":"Zeros","config":{}},"gamma_initializer":{"class_name":"Ones","config":{}},"moving_mean_initializer":{"class_name":"Zeros","config":{}},"moving_variance_initializer":{"class_name":"Ones","config":{}},"beta_regularizer":null,"gamma_regularizer":null,"beta_constraint":null,"gamma_constraint":null,"name":"batch_normalization_BatchNormalization16","trainable":true},"inbound_nodes":[[["conv2d_Conv2D16",0,0,{}]]]},{"name":"batch_normalization_BatchNormalization17","class_name":"BatchNormalization","config":{"axis":-1,"momentum":0.99,"epsilon":0.001,"center":true,"scale":true,"beta_initializer":{"class_name":"Zeros","config":{}},"gamma_initializer":{"class_name":"Ones","config":{}},"moving_mean_initializer":{"class_name":"Zeros","config":{}},"moving_variance_initializer":{"class_name":"Ones","config":{}},"beta_regularizer":null,"gamma_regularizer":null,"beta_constraint":null,"gamma_constraint":null,"name":"batch_normalization_BatchNormalization17","trainable":true},"inbound_nodes":[[["conv2d_Conv2D17",0,0,{}]]]},{"name":"batch_normalization_BatchNormalization18","class_name":"BatchNormalization","config":{"axis":-1,"momentum":0.99,"epsilon":0.001,"center":true,"scale":true,"beta_initializer":{"class_name":"Zeros","config":{}},"gamma_initializer":{"class_name":"Ones","config":{}},"moving_mean_initializer":{"class_name":"Zeros","config":{}},"moving_variance_initializer":{"class_name":"Ones","config":{}},"beta_regularizer":null,"gamma_regularizer":null,"beta_constraint":null,"gamma_constraint":null,"name":"batch_normalization_BatchNormalization18","trainable":true},"inbound_nodes":[[["conv2d_Conv2D18",0,0,{}]]]},{"name":"batch_normalization_BatchNormalization19","class_name":"BatchNormalization","config":{"axis":-1,"momentum":0.99,"epsilon":0.001,"center":true,"scale":true,"beta_initializer":{"class_name":"Zeros","config":{}},"gamma_initializer":{"class_name":"Ones","config":{}},"moving_mean_initializer":{"class_name":"Zeros","config":{}},"moving_variance_initializer":{"class_name":"Ones","config":{}},"beta_regularizer":null,"gamma_regularizer":null,"beta_constraint":null,"gamma_constraint":null,"name":"batch_normalization_BatchNormalization19","trainable":true},"inbound_nodes":[[["conv2d_Conv2D19",0,0,{}]]]},{"name":"batch_normalization_BatchNormalization20","class_name":"BatchNormalization","config":{"axis":-1,"momentum":0.99,"epsilon":0.001,"center":true,"scale":true,"beta_initializer":{"class_name":"Zeros","config":{}},"gamma_initializer":{"class_name":"Ones","config":{}},"moving_mean_initializer":{"class_name":"Zeros","config":{}},"moving_variance_initializer":{"class_name":"Ones","config":{}},"beta_regularizer":null,"gamma_regularizer":null,"beta_constraint":null,"gamma_constraint":null,"name":"batch_normalization_BatchNormalization20","trainable":true},"inbound_nodes":[[["conv2d_Conv2D20",0,0,{}]]]},{"name":"batch_normalization_BatchNormalization21","class_name":"BatchNormalization","config":{"axis":-1,"momentum":0.99,"epsilon":0.001,"center":true,"scale":true,"beta_initializer":{"class_name":"Zeros","config":{}},"gamma_initializer":{"class_name":"Ones","config":{}},"moving_mean_initializer":{"class_name":"Zeros","config":{}},"moving_variance_initializer":{"class_name":"Ones","config":{}},"beta_regularizer":null,"gamma_regularizer":null,"beta_constraint":null,"gamma_constraint":null,"name":"batch_normalization_BatchNormalization21","trainable":true},"inbound_nodes":[[["conv2d_Conv2D21",0,0,{}]]]},{"name":"batch_normalization_BatchNormalization22","class_name":"BatchNormalization","config":{"axis":-1,"momentum":0.99,"epsilon":0.001,"center":true,"scale":true,"beta_initializer":{"class_name":"Zeros","config":{}},"gamma_initializer":{"class_name":"Ones","config":{}},"moving_mean_initializer":{"class_name":"Zeros","config":{}},"moving_variance_initializer":{"class_name":"Ones","config":{}},"beta_regularizer":null,"gamma_regularizer":null,"beta_constraint":null,"gamma_constraint":null,"name":"batch_normalization_BatchNormalization22","trainable":true},"inbound_nodes":[[["conv2d_Conv2D22",0,0,{}]]]},{"name":"batch_normalization_BatchNormalization23","class_name":"BatchNormalization","config":{"axis":-1,"momentum":0.99,"epsilon":0.001,"center":true,"scale":true,"beta_initializer":{"class_name":"Zeros","config":{}},"gamma_initializer":{"class_name":"Ones","config":{}},"moving_mean_initializer":{"class_name":"Zeros","config":{}},"moving_variance_initializer":{"class_name":"Ones","config":{}},"beta_regularizer":null,"gamma_regularizer":null,"beta_constraint":null,"gamma_constraint":null,"name":"batch_normalization_BatchNormalization23","trainable":true},"inbound_nodes":[[["conv2d_Conv2D23",0,0,{}]]]},{"name":"batch_normalization_BatchNormalization24","class_name":"BatchNormalization","config":{"axis":-1,"momentum":0.99,"epsilon":0.001,"center":true,"scale":true,"beta_initializer":{"class_name":"Zeros","config":{}},"gamma_initializer":{"class_name":"Ones","config":{}},"moving_mean_initializer":{"class_name":"Zeros","config":{}},"moving_variance_initializer":{"class_name":"Ones","config":{}},"beta_regularizer":null,"gamma_regularizer":null,"beta_constraint":null,"gamma_constraint":null,"name":"batch_normalization_BatchNormalization24","trainable":true},"inbound_nodes":[[["conv2d_Conv2D24",0,0,{}]]]},{"name":"pool0","class_name":"GlobalMaxPooling2D","config":{"data_format":"channels_last","name":"pool0","trainable":true},"inbound_nodes":[[["batch_normalization_BatchNormalization1",0,0,{}]]]},{"name":"pool1","class_name":"GlobalMaxPooling2D","config":{"data_format":"channels_last","name":"pool1","trainable":true},"inbound_nodes":[[["batch_normalization_BatchNormalization2",0,0,{}]]]},{"name":"pool2","class_name":"GlobalMaxPooling2D","config":{"data_format":"channels_last","name":"pool2","trainable":true},"inbound_nodes":[[["batch_normalization_BatchNormalization3",0,0,{}]]]},{"name":"pool3","class_name":"GlobalMaxPooling2D","config":{"data_format":"channels_last","name":"pool3","trainable":true},"inbound_nodes":[[["batch_normalization_BatchNormalization4",0,0,{}]]]},{"name":"pool4","class_name":"GlobalMaxPooling2D","config":{"data_format":"channels_last","name":"pool4","trainable":true},"inbound_nodes":[[["batch_normalization_BatchNormalization5",0,0,{}]]]},{"name":"pool5","class_name":"GlobalMaxPooling2D","config":{"data_format":"channels_last","name":"pool5","trainable":true},"inbound_nodes":[[["batch_normalization_BatchNormalization6",0,0,{}]]]},{"name":"pool6","class_name":"GlobalMaxPooling2D","config":{"data_format":"channels_last","name":"pool6","trainable":true},"inbound_nodes":[[["batch_normalization_BatchNormalization7",0,0,{}]]]},{"name":"pool7","class_name":"GlobalMaxPooling2D","config":{"data_format":"channels_last","name":"pool7","trainable":true},"inbound_nodes":[[["batch_normalization_BatchNormalization8",0,0,{}]]]},{"name":"pool8","class_name":"GlobalMaxPooling2D","config":{"data_format":"channels_last","name":"pool8","trainable":true},"inbound_nodes":[[["batch_normalization_BatchNormalization9",0,0,{}]]]},{"name":"pool9","class_name":"GlobalMaxPooling2D","config":{"data_format":"channels_last","name":"pool9","trainable":true},"inbound_nodes":[[["batch_normalization_BatchNormalization10",0,0,{}]]]},{"name":"pool10","class_name":"GlobalMaxPooling2D","config":{"data_format":"channels_last","name":"pool10","trainable":true},"inbound_nodes":[[["batch_normalization_BatchNormalization11",0,0,{}]]]},{"name":"pool11","class_name":"GlobalMaxPooling2D","config":{"data_format":"channels_last","name":"pool11","trainable":true},"inbound_nodes":[[["batch_normalization_BatchNormalization12",0,0,{}]]]},{"name":"pool12","class_name":"GlobalMaxPooling2D","config":{"data_format":"channels_last","name":"pool12","trainable":true},"inbound_nodes":[[["batch_normalization_BatchNormalization13",0,0,{}]]]},{"name":"pool13","class_name":"GlobalMaxPooling2D","config":{"data_format":"channels_last","name":"pool13","trainable":true},"inbound_nodes":[[["batch_normalization_BatchNormalization14",0,0,{}]]]},{"name":"pool14","class_name":"GlobalMaxPooling2D","config":{"data_format":"channels_last","name":"pool14","trainable":true},"inbound_nodes":[[["batch_normalization_BatchNormalization15",0,0,{}]]]},{"name":"pool15","class_name":"GlobalMaxPooling2D","config":{"data_format":"channels_last","name":"pool15","trainable":true},"inbound_nodes":[[["batch_normalization_BatchNormalization16",0,0,{}]]]},{"name":"pool16","class_name":"GlobalMaxPooling2D","config":{"data_format":"channels_last","name":"pool16","trainable":true},"inbound_nodes":[[["batch_normalization_BatchNormalization17",0,0,{}]]]},{"name":"pool17","class_name":"GlobalMaxPooling2D","config":{"data_format":"channels_last","name":"pool17","trainable":true},"inbound_nodes":[[["batch_normalization_BatchNormalization18",0,0,{}]]]},{"name":"pool18","class_name":"GlobalMaxPooling2D","config":{"data_format":"channels_last","name":"pool18","trainable":true},"inbound_nodes":[[["batch_normalization_BatchNormalization19",0,0,{}]]]},{"name":"pool19","class_name":"GlobalMaxPooling2D","config":{"data_format":"channels_last","name":"pool19","trainable":true},"inbound_nodes":[[["batch_normalization_BatchNormalization20",0,0,{}]]]},{"name":"pool20","class_name":"GlobalMaxPooling2D","config":{"data_format":"channels_last","name":"pool20","trainable":true},"inbound_nodes":[[["batch_normalization_BatchNormalization21",0,0,{}]]]},{"name":"pool21","class_name":"GlobalMaxPooling2D","config":{"data_format":"channels_last","name":"pool21","trainable":true},"inbound_nodes":[[["batch_normalization_BatchNormalization22",0,0,{}]]]},{"name":"pool22","class_name":"GlobalMaxPooling2D","config":{"data_format":"channels_last","name":"pool22","trainable":true},"inbound_nodes":[[["batch_normalization_BatchNormalization23",0,0,{}]]]},{"name":"pool23","class_name":"GlobalMaxPooling2D","config":{"data_format":"channels_last","name":"pool23","trainable":true},"inbound_nodes":[[["batch_normalization_BatchNormalization24",0,0,{}]]]},{"name":"dense_Dense1","class_name":"Dense","config":{"units":1,"activation":"sigmoid","use_bias":true,"kernel_initializer":{"class_name":"VarianceScaling","config":{"scale":2,"mode":"fan_in","distribution":"normal","seed":null}},"bias_initializer":{"class_name":"Zeros","config":{}},"kernel_regularizer":{"class_name":"L1L2","config":{"l1":0.01,"l2":0.01}},"bias_regularizer":null,"activity_regularizer":null,"kernel_constraint":null,"bias_constraint":null,"name":"dense_Dense1","trainable":true},"inbound_nodes":[[["pool0",0,0,{}]]]},{"name":"dense_Dense2","class_name":"Dense","config":{"units":1,"activation":"sigmoid","use_bias":true,"kernel_initializer":{"class_name":"VarianceScaling","config":{"scale":2,"mode":"fan_in","distribution":"normal","seed":null}},"bias_initializer":{"class_name":"Zeros","config":{}},"kernel_regularizer":{"class_name":"L1L2","config":{"l1":0.01,"l2":0.01}},"bias_regularizer":null,"activity_regularizer":null,"kernel_constraint":null,"bias_constraint":null,"name":"dense_Dense2","trainable":true},"inbound_nodes":[[["pool1",0,0,{}]]]},{"name":"dense_Dense3","class_name":"Dense","config":{"units":1,"activation":"sigmoid","use_bias":true,"kernel_initializer":{"class_name":"VarianceScaling","config":{"scale":2,"mode":"fan_in","distribution":"normal","seed":null}},"bias_initializer":{"class_name":"Zeros","config":{}},"kernel_regularizer":{"class_name":"L1L2","config":{"l1":0.01,"l2":0.01}},"bias_regularizer":null,"activity_regularizer":null,"kernel_constraint":null,"bias_constraint":null,"name":"dense_Dense3","trainable":true},"inbound_nodes":[[["pool2",0,0,{}]]]},{"name":"dense_Dense4","class_name":"Dense","config":{"units":1,"activation":"sigmoid","use_bias":true,"kernel_initializer":{"class_name":"VarianceScaling","config":{"scale":2,"mode":"fan_in","distribution":"normal","seed":null}},"bias_initializer":{"class_name":"Zeros","config":{}},"kernel_regularizer":{"class_name":"L1L2","config":{"l1":0.01,"l2":0.01}},"bias_regularizer":null,"activity_regularizer":null,"kernel_constraint":null,"bias_constraint":null,"name":"dense_Dense4","trainable":true},"inbound_nodes":[[["pool3",0,0,{}]]]},{"name":"dense_Dense5","class_name":"Dense","config":{"units":1,"activation":"sigmoid","use_bias":true,"kernel_initializer":{"class_name":"VarianceScaling","config":{"scale":2,"mode":"fan_in","distribution":"normal","seed":null}},"bias_initializer":{"class_name":"Zeros","config":{}},"kernel_regularizer":{"class_name":"L1L2","config":{"l1":0.01,"l2":0.01}},"bias_regularizer":null,"activity_regularizer":null,"kernel_constraint":null,"bias_constraint":null,"name":"dense_Dense5","trainable":true},"inbound_nodes":[[["pool4",0,0,{}]]]},{"name":"dense_Dense6","class_name":"Dense","config":{"units":1,"activation":"sigmoid","use_bias":true,"kernel_initializer":{"class_name":"VarianceScaling","config":{"scale":2,"mode":"fan_in","distribution":"normal","seed":null}},"bias_initializer":{"class_name":"Zeros","config":{}},"kernel_regularizer":{"class_name":"L1L2","config":{"l1":0.01,"l2":0.01}},"bias_regularizer":null,"activity_regularizer":null,"kernel_constraint":null,"bias_constraint":null,"name":"dense_Dense6","trainable":true},"inbound_nodes":[[["pool5",0,0,{}]]]},{"name":"dense_Dense7","class_name":"Dense","config":{"units":1,"activation":"sigmoid","use_bias":true,"kernel_initializer":{"class_name":"VarianceScaling","config":{"scale":2,"mode":"fan_in","distribution":"normal","seed":null}},"bias_initializer":{"class_name":"Zeros","config":{}},"kernel_regularizer":{"class_name":"L1L2","config":{"l1":0.01,"l2":0.01}},"bias_regularizer":null,"activity_regularizer":null,"kernel_constraint":null,"bias_constraint":null,"name":"dense_Dense7","trainable":true},"inbound_nodes":[[["pool6",0,0,{}]]]},{"name":"dense_Dense8","class_name":"Dense","config":{"units":1,"activation":"sigmoid","use_bias":true,"kernel_initializer":{"class_name":"VarianceScaling","config":{"scale":2,"mode":"fan_in","distribution":"normal","seed":null}},"bias_initializer":{"class_name":"Zeros","config":{}},"kernel_regularizer":{"class_name":"L1L2","config":{"l1":0.01,"l2":0.01}},"bias_regularizer":null,"activity_regularizer":null,"kernel_constraint":null,"bias_constraint":null,"name":"dense_Dense8","trainable":true},"inbound_nodes":[[["pool7",0,0,{}]]]},{"name":"dense_Dense9","class_name":"Dense","config":{"units":1,"activation":"sigmoid","use_bias":true,"kernel_initializer":{"class_name":"VarianceScaling","config":{"scale":2,"mode":"fan_in","distribution":"normal","seed":null}},"bias_initializer":{"class_name":"Zeros","config":{}},"kernel_regularizer":{"class_name":"L1L2","config":{"l1":0.01,"l2":0.01}},"bias_regularizer":null,"activity_regularizer":null,"kernel_constraint":null,"bias_constraint":null,"name":"dense_Dense9","trainable":true},"inbound_nodes":[[["pool8",0,0,{}]]]},{"name":"dense_Dense10","class_name":"Dense","config":{"units":1,"activation":"sigmoid","use_bias":true,"kernel_initializer":{"class_name":"VarianceScaling","config":{"scale":2,"mode":"fan_in","distribution":"normal","seed":null}},"bias_initializer":{"class_name":"Zeros","config":{}},"kernel_regularizer":{"class_name":"L1L2","config":{"l1":0.01,"l2":0.01}},"bias_regularizer":null,"activity_regularizer":null,"kernel_constraint":null,"bias_constraint":null,"name":"dense_Dense10","trainable":true},"inbound_nodes":[[["pool9",0,0,{}]]]},{"name":"dense_Dense11","class_name":"Dense","config":{"units":1,"activation":"sigmoid","use_bias":true,"kernel_initializer":{"class_name":"VarianceScaling","config":{"scale":2,"mode":"fan_in","distribution":"normal","seed":null}},"bias_initializer":{"class_name":"Zeros","config":{}},"kernel_regularizer":{"class_name":"L1L2","config":{"l1":0.01,"l2":0.01}},"bias_regularizer":null,"activity_regularizer":null,"kernel_constraint":null,"bias_constraint":null,"name":"dense_Dense11","trainable":true},"inbound_nodes":[[["pool10",0,0,{}]]]},{"name":"dense_Dense12","class_name":"Dense","config":{"units":1,"activation":"sigmoid","use_bias":true,"kernel_initializer":{"class_name":"VarianceScaling","config":{"scale":2,"mode":"fan_in","distribution":"normal","seed":null}},"bias_initializer":{"class_name":"Zeros","config":{}},"kernel_regularizer":{"class_name":"L1L2","config":{"l1":0.01,"l2":0.01}},"bias_regularizer":null,"activity_regularizer":null,"kernel_constraint":null,"bias_constraint":null,"name":"dense_Dense12","trainable":true},"inbound_nodes":[[["pool11",0,0,{}]]]},{"name":"dense_Dense13","class_name":"Dense","config":{"units":1,"activation":"sigmoid","use_bias":true,"kernel_initializer":{"class_name":"VarianceScaling","config":{"scale":2,"mode":"fan_in","distribution":"normal","seed":null}},"bias_initializer":{"class_name":"Zeros","config":{}},"kernel_regularizer":{"class_name":"L1L2","config":{"l1":0.01,"l2":0.01}},"bias_regularizer":null,"activity_regularizer":null,"kernel_constraint":null,"bias_constraint":null,"name":"dense_Dense13","trainable":true},"inbound_nodes":[[["pool12",0,0,{}]]]},{"name":"dense_Dense14","class_name":"Dense","config":{"units":1,"activation":"sigmoid","use_bias":true,"kernel_initializer":{"class_name":"VarianceScaling","config":{"scale":2,"mode":"fan_in","distribution":"normal","seed":null}},"bias_initializer":{"class_name":"Zeros","config":{}},"kernel_regularizer":{"class_name":"L1L2","config":{"l1":0.01,"l2":0.01}},"bias_regularizer":null,"activity_regularizer":null,"kernel_constraint":null,"bias_constraint":null,"name":"dense_Dense14","trainable":true},"inbound_nodes":[[["pool13",0,0,{}]]]},{"name":"dense_Dense15","class_name":"Dense","config":{"units":1,"activation":"sigmoid","use_bias":true,"kernel_initializer":{"class_name":"VarianceScaling","config":{"scale":2,"mode":"fan_in","distribution":"normal","seed":null}},"bias_initializer":{"class_name":"Zeros","config":{}},"kernel_regularizer":{"class_name":"L1L2","config":{"l1":0.01,"l2":0.01}},"bias_regularizer":null,"activity_regularizer":null,"kernel_constraint":null,"bias_constraint":null,"name":"dense_Dense15","trainable":true},"inbound_nodes":[[["pool14",0,0,{}]]]},{"name":"dense_Dense16","class_name":"Dense","config":{"units":1,"activation":"sigmoid","use_bias":true,"kernel_initializer":{"class_name":"VarianceScaling","config":{"scale":2,"mode":"fan_in","distribution":"normal","seed":null}},"bias_initializer":{"class_name":"Zeros","config":{}},"kernel_regularizer":{"class_name":"L1L2","config":{"l1":0.01,"l2":0.01}},"bias_regularizer":null,"activity_regularizer":null,"kernel_constraint":null,"bias_constraint":null,"name":"dense_Dense16","trainable":true},"inbound_nodes":[[["pool15",0,0,{}]]]},{"name":"dense_Dense17","class_name":"Dense","config":{"units":1,"activation":"sigmoid","use_bias":true,"kernel_initializer":{"class_name":"VarianceScaling","config":{"scale":2,"mode":"fan_in","distribution":"normal","seed":null}},"bias_initializer":{"class_name":"Zeros","config":{}},"kernel_regularizer":{"class_name":"L1L2","config":{"l1":0.01,"l2":0.01}},"bias_regularizer":null,"activity_regularizer":null,"kernel_constraint":null,"bias_constraint":null,"name":"dense_Dense17","trainable":true},"inbound_nodes":[[["pool16",0,0,{}]]]},{"name":"dense_Dense18","class_name":"Dense","config":{"units":1,"activation":"sigmoid","use_bias":true,"kernel_initializer":{"class_name":"VarianceScaling","config":{"scale":2,"mode":"fan_in","distribution":"normal","seed":null}},"bias_initializer":{"class_name":"Zeros","config":{}},"kernel_regularizer":{"class_name":"L1L2","config":{"l1":0.01,"l2":0.01}},"bias_regularizer":null,"activity_regularizer":null,"kernel_constraint":null,"bias_constraint":null,"name":"dense_Dense18","trainable":true},"inbound_nodes":[[["pool17",0,0,{}]]]},{"name":"dense_Dense19","class_name":"Dense","config":{"units":1,"activation":"sigmoid","use_bias":true,"kernel_initializer":{"class_name":"VarianceScaling","config":{"scale":2,"mode":"fan_in","distribution":"normal","seed":null}},"bias_initializer":{"class_name":"Zeros","config":{}},"kernel_regularizer":{"class_name":"L1L2","config":{"l1":0.01,"l2":0.01}},"bias_regularizer":null,"activity_regularizer":null,"kernel_constraint":null,"bias_constraint":null,"name":"dense_Dense19","trainable":true},"inbound_nodes":[[["pool18",0,0,{}]]]},{"name":"dense_Dense20","class_name":"Dense","config":{"units":1,"activation":"sigmoid","use_bias":true,"kernel_initializer":{"class_name":"VarianceScaling","config":{"scale":2,"mode":"fan_in","distribution":"normal","seed":null}},"bias_initializer":{"class_name":"Zeros","config":{}},"kernel_regularizer":{"class_name":"L1L2","config":{"l1":0.01,"l2":0.01}},"bias_regularizer":null,"activity_regularizer":null,"kernel_constraint":null,"bias_constraint":null,"name":"dense_Dense20","trainable":true},"inbound_nodes":[[["pool19",0,0,{}]]]},{"name":"dense_Dense21","class_name":"Dense","config":{"units":1,"activation":"sigmoid","use_bias":true,"kernel_initializer":{"class_name":"VarianceScaling","config":{"scale":2,"mode":"fan_in","distribution":"normal","seed":null}},"bias_initializer":{"class_name":"Zeros","config":{}},"kernel_regularizer":{"class_name":"L1L2","config":{"l1":0.01,"l2":0.01}},"bias_regularizer":null,"activity_regularizer":null,"kernel_constraint":null,"bias_constraint":null,"name":"dense_Dense21","trainable":true},"inbound_nodes":[[["pool20",0,0,{}]]]},{"name":"dense_Dense22","class_name":"Dense","config":{"units":1,"activation":"sigmoid","use_bias":true,"kernel_initializer":{"class_name":"VarianceScaling","config":{"scale":2,"mode":"fan_in","distribution":"normal","seed":null}},"bias_initializer":{"class_name":"Zeros","config":{}},"kernel_regularizer":{"class_name":"L1L2","config":{"l1":0.01,"l2":0.01}},"bias_regularizer":null,"activity_regularizer":null,"kernel_constraint":null,"bias_constraint":null,"name":"dense_Dense22","trainable":true},"inbound_nodes":[[["pool21",0,0,{}]]]},{"name":"dense_Dense23","class_name":"Dense","config":{"units":1,"activation":"sigmoid","use_bias":true,"kernel_initializer":{"class_name":"VarianceScaling","config":{"scale":2,"mode":"fan_in","distribution":"normal","seed":null}},"bias_initializer":{"class_name":"Zeros","config":{}},"kernel_regularizer":{"class_name":"L1L2","config":{"l1":0.01,"l2":0.01}},"bias_regularizer":null,"activity_regularizer":null,"kernel_constraint":null,"bias_constraint":null,"name":"dense_Dense23","trainable":true},"inbound_nodes":[[["pool22",0,0,{}]]]},{"name":"dense_Dense24","class_name":"Dense","config":{"units":1,"activation":"sigmoid","use_bias":true,"kernel_initializer":{"class_name":"VarianceScaling","config":{"scale":2,"mode":"fan_in","distribution":"normal","seed":null}},"bias_initializer":{"class_name":"Zeros","config":{}},"kernel_regularizer":{"class_name":"L1L2","config":{"l1":0.01,"l2":0.01}},"bias_regularizer":null,"activity_regularizer":null,"kernel_constraint":null,"bias_constraint":null,"name":"dense_Dense24","trainable":true},"inbound_nodes":[[["pool23",0,0,{}]]]}],"input_layers":[["input1",0,0]],"output_layers":[["dense_Dense1",0,0],["dense_Dense2",0,0],["dense_Dense3",0,0],["dense_Dense4",0,0],["dense_Dense5",0,0],["dense_Dense6",0,0],["dense_Dense7",0,0],["dense_Dense8",0,0],["dense_Dense9",0,0],["dense_Dense10",0,0],["dense_Dense11",0,0],["dense_Dense12",0,0],["dense_Dense13",0,0],["dense_Dense14",0,0],["dense_Dense15",0,0],["dense_Dense16",0,0],["dense_Dense17",0,0],["dense_Dense18",0,0],["dense_Dense19",0,0],["dense_Dense20",0,0],["dense_Dense21",0,0],["dense_Dense22",0,0],["dense_Dense23",0,0],["dense_Dense24",0,0]]},"keras_version":"tfjs-layers 1.1.2","backend":"tensor_flow.js"},"weightsManifest":[{"paths":["weights.bin"],"weights":[{"name":"conv2d_Conv2D1/kernel","shape":[3,1,1,8],"dtype":"float32"},{"name":"conv2d_Conv2D1/bias","shape":[8],"dtype":"float32"},{"name":"conv2d_Conv2D2/kernel","shape":[3,1,1,8],"dtype":"float32"},{"name":"conv2d_Conv2D2/bias","shape":[8],"dtype":"float32"},{"name":"conv2d_Conv2D3/kernel","shape":[3,1,1,8],"dtype":"float32"},{"name":"conv2d_Conv2D3/bias","shape":[8],"dtype":"float32"},{"name":"conv2d_Conv2D4/kernel","shape":[3,1,1,8],"dtype":"float32"},{"name":"conv2d_Conv2D4/bias","shape":[8],"dtype":"float32"},{"name":"conv2d_Conv2D5/kernel","shape":[3,1,1,8],"dtype":"float32"},{"name":"conv2d_Conv2D5/bias","shape":[8],"dtype":"float32"},{"name":"conv2d_Conv2D6/kernel","shape":[3,1,1,8],"dtype":"float32"},{"name":"conv2d_Conv2D6/bias","shape":[8],"dtype":"float32"},{"name":"conv2d_Conv2D7/kernel","shape":[3,1,1,8],"dtype":"float32"},{"name":"conv2d_Conv2D7/bias","shape":[8],"dtype":"float32"},{"name":"conv2d_Conv2D8/kernel","shape":[3,1,1,8],"dtype":"float32"},{"name":"conv2d_Conv2D8/bias","shape":[8],"dtype":"float32"},{"name":"conv2d_Conv2D9/kernel","shape":[3,1,1,8],"dtype":"float32"},{"name":"conv2d_Conv2D9/bias","shape":[8],"dtype":"float32"},{"name":"conv2d_Conv2D10/kernel","shape":[3,1,1,8],"dtype":"float32"},{"name":"conv2d_Conv2D10/bias","shape":[8],"dtype":"float32"},{"name":"conv2d_Conv2D11/kernel","shape":[3,1,1,8],"dtype":"float32"},{"name":"conv2d_Conv2D11/bias","shape":[8],"dtype":"float32"},{"name":"conv2d_Conv2D12/kernel","shape":[3,1,1,8],"dtype":"float32"},{"name":"conv2d_Conv2D12/bias","shape":[8],"dtype":"float32"},{"name":"conv2d_Conv2D13/kernel","shape":[3,1,1,8],"dtype":"float32"},{"name":"conv2d_Conv2D13/bias","shape":[8],"dtype":"float32"},{"name":"conv2d_Conv2D14/kernel","shape":[3,1,1,8],"dtype":"float32"},{"name":"conv2d_Conv2D14/bias","shape":[8],"dtype":"float32"},{"name":"conv2d_Conv2D15/kernel","shape":[3,1,1,8],"dtype":"float32"},{"name":"conv2d_Conv2D15/bias","shape":[8],"dtype":"float32"},{"name":"conv2d_Conv2D16/kernel","shape":[3,1,1,8],"dtype":"float32"},{"name":"conv2d_Conv2D16/bias","shape":[8],"dtype":"float32"},{"name":"conv2d_Conv2D17/kernel","shape":[3,1,1,8],"dtype":"float32"},{"name":"conv2d_Conv2D17/bias","shape":[8],"dtype":"float32"},{"name":"conv2d_Conv2D18/kernel","shape":[3,1,1,8],"dtype":"float32"},{"name":"conv2d_Conv2D18/bias","shape":[8],"dtype":"float32"},{"name":"conv2d_Conv2D19/kernel","shape":[3,1,1,8],"dtype":"float32"},{"name":"conv2d_Conv2D19/bias","shape":[8],"dtype":"float32"},{"name":"conv2d_Conv2D20/kernel","shape":[3,1,1,8],"dtype":"float32"},{"name":"conv2d_Conv2D20/bias","shape":[8],"dtype":"float32"},{"name":"conv2d_Conv2D21/kernel","shape":[3,1,1,8],"dtype":"float32"},{"name":"conv2d_Conv2D21/bias","shape":[8],"dtype":"float32"},{"name":"conv2d_Conv2D22/kernel","shape":[3,1,1,8],"dtype":"float32"},{"name":"conv2d_Conv2D22/bias","shape":[8],"dtype":"float32"},{"name":"conv2d_Conv2D23/kernel","shape":[3,1,1,8],"dtype":"float32"},{"name":"conv2d_Conv2D23/bias","shape":[8],"dtype":"float32"},{"name":"conv2d_Conv2D24/kernel","shape":[3,1,1,8],"dtype":"float32"},{"name":"conv2d_Conv2D24/bias","shape":[8],"dtype":"float32"},{"name":"batch_normalization_BatchNormalization1/gamma","shape":[8],"dtype":"float32"},{"name":"batch_normalization_BatchNormalization1/beta","shape":[8],"dtype":"float32"},{"name":"batch_normalization_BatchNormalization2/gamma","shape":[8],"dtype":"float32"},{"name":"batch_normalization_BatchNormalization2/beta","shape":[8],"dtype":"float32"},{"name":"batch_normalization_BatchNormalization3/gamma","shape":[8],"dtype":"float32"},{"name":"batch_normalization_BatchNormalization3/beta","shape":[8],"dtype":"float32"},{"name":"batch_normalization_BatchNormalization4/gamma","shape":[8],"dtype":"float32"},{"name":"batch_normalization_BatchNormalization4/beta","shape":[8],"dtype":"float32"},{"name":"batch_normalization_BatchNormalization5/gamma","shape":[8],"dtype":"float32"},{"name":"batch_normalization_BatchNormalization5/beta","shape":[8],"dtype":"float32"},{"name":"batch_normalization_BatchNormalization6/gamma","shape":[8],"dtype":"float32"},{"name":"batch_normalization_BatchNormalization6/beta","shape":[8],"dtype":"float32"},{"name":"batch_normalization_BatchNormalization7/gamma","shape":[8],"dtype":"float32"},{"name":"batch_normalization_BatchNormalization7/beta","shape":[8],"dtype":"float32"},{"name":"batch_normalization_BatchNormalization8/gamma","shape":[8],"dtype":"float32"},{"name":"batch_normalization_BatchNormalization8/beta","shape":[8],"dtype":"float32"},{"name":"batch_normalization_BatchNormalization9/gamma","shape":[8],"dtype":"float32"},{"name":"batch_normalization_BatchNormalization9/beta","shape":[8],"dtype":"float32"},{"name":"batch_normalization_BatchNormalization10/gamma","shape":[8],"dtype":"float32"},{"name":"batch_normalization_BatchNormalization10/beta","shape":[8],"dtype":"float32"},{"name":"batch_normalization_BatchNormalization11/gamma","shape":[8],"dtype":"float32"},{"name":"batch_normalization_BatchNormalization11/beta","shape":[8],"dtype":"float32"},{"name":"batch_normalization_BatchNormalization12/gamma","shape":[8],"dtype":"float32"},{"name":"batch_normalization_BatchNormalization12/beta","shape":[8],"dtype":"float32"},{"name":"batch_normalization_BatchNormalization13/gamma","shape":[8],"dtype":"float32"},{"name":"batch_normalization_BatchNormalization13/beta","shape":[8],"dtype":"float32"},{"name":"batch_normalization_BatchNormalization14/gamma","shape":[8],"dtype":"float32"},{"name":"batch_normalization_BatchNormalization14/beta","shape":[8],"dtype":"float32"},{"name":"batch_normalization_BatchNormalization15/gamma","shape":[8],"dtype":"float32"},{"name":"batch_normalization_BatchNormalization15/beta","shape":[8],"dtype":"float32"},{"name":"batch_normalization_BatchNormalization16/gamma","shape":[8],"dtype":"float32"},{"name":"batch_normalization_BatchNormalization16/beta","shape":[8],"dtype":"float32"},{"name":"batch_normalization_BatchNormalization17/gamma","shape":[8],"dtype":"float32"},{"name":"batch_normalization_BatchNormalization17/beta","shape":[8],"dtype":"float32"},{"name":"batch_normalization_BatchNormalization18/gamma","shape":[8],"dtype":"float32"},{"name":"batch_normalization_BatchNormalization18/beta","shape":[8],"dtype":"float32"},{"name":"batch_normalization_BatchNormalization19/gamma","shape":[8],"dtype":"float32"},{"name":"batch_normalization_BatchNormalization19/beta","shape":[8],"dtype":"float32"},{"name":"batch_normalization_BatchNormalization20/gamma","shape":[8],"dtype":"float32"},{"name":"batch_normalization_BatchNormalization20/beta","shape":[8],"dtype":"float32"},{"name":"batch_normalization_BatchNormalization21/gamma","shape":[8],"dtype":"float32"},{"name":"batch_normalization_BatchNormalization21/beta","shape":[8],"dtype":"float32"},{"name":"batch_normalization_BatchNormalization22/gamma","shape":[8],"dtype":"float32"},{"name":"batch_normalization_BatchNormalization22/beta","shape":[8],"dtype":"float32"},{"name":"batch_normalization_BatchNormalization23/gamma","shape":[8],"dtype":"float32"},{"name":"batch_normalization_BatchNormalization23/beta","shape":[8],"dtype":"float32"},{"name":"batch_normalization_BatchNormalization24/gamma","shape":[8],"dtype":"float32"},{"name":"batch_normalization_BatchNormalization24/beta","shape":[8],"dtype":"float32"},{"name":"dense_Dense1/kernel","shape":[8,1],"dtype":"float32"},{"name":"dense_Dense1/bias","shape":[1],"dtype":"float32"},{"name":"dense_Dense2/kernel","shape":[8,1],"dtype":"float32"},{"name":"dense_Dense2/bias","shape":[1],"dtype":"float32"},{"name":"dense_Dense3/kernel","shape":[8,1],"dtype":"float32"},{"name":"dense_Dense3/bias","shape":[1],"dtype":"float32"},{"name":"dense_Dense4/kernel","shape":[8,1],"dtype":"float32"},{"name":"dense_Dense4/bias","shape":[1],"dtype":"float32"},{"name":"dense_Dense5/kernel","shape":[8,1],"dtype":"float32"},{"name":"dense_Dense5/bias","shape":[1],"dtype":"float32"},{"name":"dense_Dense6/kernel","shape":[8,1],"dtype":"float32"},{"name":"dense_Dense6/bias","shape":[1],"dtype":"float32"},{"name":"dense_Dense7/kernel","shape":[8,1],"dtype":"float32"},{"name":"dense_Dense7/bias","shape":[1],"dtype":"float32"},{"name":"dense_Dense8/kernel","shape":[8,1],"dtype":"float32"},{"name":"dense_Dense8/bias","shape":[1],"dtype":"float32"},{"name":"dense_Dense9/kernel","shape":[8,1],"dtype":"float32"},{"name":"dense_Dense9/bias","shape":[1],"dtype":"float32"},{"name":"dense_Dense10/kernel","shape":[8,1],"dtype":"float32"},{"name":"dense_Dense10/bias","shape":[1],"dtype":"float32"},{"name":"dense_Dense11/kernel","shape":[8,1],"dtype":"float32"},{"name":"dense_Dense11/bias","shape":[1],"dtype":"float32"},{"name":"dense_Dense12/kernel","shape":[8,1],"dtype":"float32"},{"name":"dense_Dense12/bias","shape":[1],"dtype":"float32"},{"name":"dense_Dense13/kernel","shape":[8,1],"dtype":"float32"},{"name":"dense_Dense13/bias","shape":[1],"dtype":"float32"},{"name":"dense_Dense14/kernel","shape":[8,1],"dtype":"float32"},{"name":"dense_Dense14/bias","shape":[1],"dtype":"float32"},{"name":"dense_Dense15/kernel","shape":[8,1],"dtype":"float32"},{"name":"dense_Dense15/bias","shape":[1],"dtype":"float32"},{"name":"dense_Dense16/kernel","shape":[8,1],"dtype":"float32"},{"name":"dense_Dense16/bias","shape":[1],"dtype":"float32"},{"name":"dense_Dense17/kernel","shape":[8,1],"dtype":"float32"},{"name":"dense_Dense17/bias","shape":[1],"dtype":"float32"},{"name":"dense_Dense18/kernel","shape":[8,1],"dtype":"float32"},{"name":"dense_Dense18/bias","shape":[1],"dtype":"float32"},{"name":"dense_Dense19/kernel","shape":[8,1],"dtype":"float32"},{"name":"dense_Dense19/bias","shape":[1],"dtype":"float32"},{"name":"dense_Dense20/kernel","shape":[8,1],"dtype":"float32"},{"name":"dense_Dense20/bias","shape":[1],"dtype":"float32"},{"name":"dense_Dense21/kernel","shape":[8,1],"dtype":"float32"},{"name":"dense_Dense21/bias","shape":[1],"dtype":"float32"},{"name":"dense_Dense22/kernel","shape":[8,1],"dtype":"float32"},{"name":"dense_Dense22/bias","shape":[1],"dtype":"float32"},{"name":"dense_Dense23/kernel","shape":[8,1],"dtype":"float32"},{"name":"dense_Dense23/bias","shape":[1],"dtype":"float32"},{"name":"dense_Dense24/kernel","shape":[8,1],"dtype":"float32"},{"name":"dense_Dense24/bias","shape":[1],"dtype":"float32"},{"name":"batch_normalization_BatchNormalization1/moving_mean","shape":[8],"dtype":"float32"},{"name":"batch_normalization_BatchNormalization1/moving_variance","shape":[8],"dtype":"float32"},{"name":"batch_normalization_BatchNormalization2/moving_mean","shape":[8],"dtype":"float32"},{"name":"batch_normalization_BatchNormalization2/moving_variance","shape":[8],"dtype":"float32"},{"name":"batch_normalization_BatchNormalization3/moving_mean","shape":[8],"dtype":"float32"},{"name":"batch_normalization_BatchNormalization3/moving_variance","shape":[8],"dtype":"float32"},{"name":"batch_normalization_BatchNormalization4/moving_mean","shape":[8],"dtype":"float32"},{"name":"batch_normalization_BatchNormalization4/moving_variance","shape":[8],"dtype":"float32"},{"name":"batch_normalization_BatchNormalization5/moving_mean","shape":[8],"dtype":"float32"},{"name":"batch_normalization_BatchNormalization5/moving_variance","shape":[8],"dtype":"float32"},{"name":"batch_normalization_BatchNormalization6/moving_mean","shape":[8],"dtype":"float32"},{"name":"batch_normalization_BatchNormalization6/moving_variance","shape":[8],"dtype":"float32"},{"name":"batch_normalization_BatchNormalization7/moving_mean","shape":[8],"dtype":"float32"},{"name":"batch_normalization_BatchNormalization7/moving_variance","shape":[8],"dtype":"float32"},{"name":"batch_normalization_BatchNormalization8/moving_mean","shape":[8],"dtype":"float32"},{"name":"batch_normalization_BatchNormalization8/moving_variance","shape":[8],"dtype":"float32"},{"name":"batch_normalization_BatchNormalization9/moving_mean","shape":[8],"dtype":"float32"},{"name":"batch_normalization_BatchNormalization9/moving_variance","shape":[8],"dtype":"float32"},{"name":"batch_normalization_BatchNormalization10/moving_mean","shape":[8],"dtype":"float32"},{"name":"batch_normalization_BatchNormalization10/moving_variance","shape":[8],"dtype":"float32"},{"name":"batch_normalization_BatchNormalization11/moving_mean","shape":[8],"dtype":"float32"},{"name":"batch_normalization_BatchNormalization11/moving_variance","shape":[8],"dtype":"float32"},{"name":"batch_normalization_BatchNormalization12/moving_mean","shape":[8],"dtype":"float32"},{"name":"batch_normalization_BatchNormalization12/moving_variance","shape":[8],"dtype":"float32"},{"name":"batch_normalization_BatchNormalization13/moving_mean","shape":[8],"dtype":"float32"},{"name":"batch_normalization_BatchNormalization13/moving_variance","shape":[8],"dtype":"float32"},{"name":"batch_normalization_BatchNormalization14/moving_mean","shape":[8],"dtype":"float32"},{"name":"batch_normalization_BatchNormalization14/moving_variance","shape":[8],"dtype":"float32"},{"name":"batch_normalization_BatchNormalization15/moving_mean","shape":[8],"dtype":"float32"},{"name":"batch_normalization_BatchNormalization15/moving_variance","shape":[8],"dtype":"float32"},{"name":"batch_normalization_BatchNormalization16/moving_mean","shape":[8],"dtype":"float32"},{"name":"batch_normalization_BatchNormalization16/moving_variance","shape":[8],"dtype":"float32"},{"name":"batch_normalization_BatchNormalization17/moving_mean","shape":[8],"dtype":"float32"},{"name":"batch_normalization_BatchNormalization17/moving_variance","shape":[8],"dtype":"float32"},{"name":"batch_normalization_BatchNormalization18/moving_mean","shape":[8],"dtype":"float32"},{"name":"batch_normalization_BatchNormalization18/moving_variance","shape":[8],"dtype":"float32"},{"name":"batch_normalization_BatchNormalization19/moving_mean","shape":[8],"dtype":"float32"},{"name":"batch_normalization_BatchNormalization19/moving_variance","shape":[8],"dtype":"float32"},{"name":"batch_normalization_BatchNormalization20/moving_mean","shape":[8],"dtype":"float32"},{"name":"batch_normalization_BatchNormalization20/moving_variance","shape":[8],"dtype":"float32"},{"name":"batch_normalization_BatchNormalization21/moving_mean","shape":[8],"dtype":"float32"},{"name":"batch_normalization_BatchNormalization21/moving_variance","shape":[8],"dtype":"float32"},{"name":"batch_normalization_BatchNormalization22/moving_mean","shape":[8],"dtype":"float32"},{"name":"batch_normalization_BatchNormalization22/moving_variance","shape":[8],"dtype":"float32"},{"name":"batch_normalization_BatchNormalization23/moving_mean","shape":[8],"dtype":"float32"},{"name":"batch_normalization_BatchNormalization23/moving_variance","shape":[8],"dtype":"float32"},{"name":"batch_normalization_BatchNormalization24/moving_mean","shape":[8],"dtype":"float32"},{"name":"batch_normalization_BatchNormalization24/moving_variance","shape":[8],"dtype":"float32"}]}]}